app/src/main/assets/model.tflite (tflite, 599880 bytes, 4 tensors)

sequential/dense/BiasAdd/ReadVariableOp f4 [32]
000000 09 1c 48 bd a6 2a ed bb bc 82 51 3e 13 84 b6 3d
       -0.04885486 -0.00723775 0.20460027 0.0891191
000010 ad 1f 54 bd 0a e4 e7 bc 0b 29 b2 bb 27 eb 1a 3d
       -0.05178802 -0.02830698 -0.0054370216 0.037821915
000020 5c a8 93 bc 06 35 d4 bc dc a6 8c bd a1 c7 62 3e
       -0.018024616 -0.02590419 -0.068677634 0.22146465
000030 0f 26 89 3e ad 9c 2a 3e 0f ce f4 3c 1f 00 13 bc
       0.2678685 0.1666133 0.029883413 -0.008972197
000040 49 04 04 bc 6f 11 2a 3d 7f 3a 7e 3d 31 ca 78 3d
       -0.008057662 0.041520532 0.062067505 0.0607397
000050 f0 5e 1c 3d 4a 20 0f 3c 00 cc 53 3d 66 c1 f3 bc
       0.038176477 0.008735726 0.05170822 -0.029755305
000060 15 4a cb 3d e8 51 08 3d 08 a8 27 3d 5f 10 2a bd
       0.099262394 0.033281237 0.04093173 -0.04151952
000070 15 59 b0 bc 92 c4 43 bd af 50 71 bc 58 0a 15 bd
       -0.021526853 -0.047794886 -0.014728709 -0.036386818

sequential/dense_1/BiasAdd/ReadVariableOp f4 [5]
000000 38 17 ab 3e 8a 7c b6 be 8a 29 be 3d ad e0 33 3e
       0.33416152 -0.3564189 0.09285267 0.17566176
000010 52 23 37 be
       -0.17884567

sequential/dense/MatMul f4 [32, 4671]
000000 2a 64 4d bc 00 a2 40 bd 3c 47 31 bd 88 75 1b bc
       -0.012536088 -0.047029495 -0.043280825 -0.009488471
000010 b8 a8 82 3d 8f e5 0a bc d4 a6 41 3d e0 ce 97 bc
       0.06379837 -0.008477583 0.04727824 -0.018531263
000020 de 85 da bc cf e1 d0 3c 74 8e bd 3c a9 6a 72 3b
       -0.026675161 0.025498299 0.023139216 0.0036989844
000030 d8 57 45 bd b5 d8 c4 ba aa ca 06 bc f0 c0 2c bc
       -0.048179477 -0.0015018197 -0.00822703 -0.010544047
000040 b0 81 7c 3c 04 8d 8a 3b 51 3e a9 3d 97 ec 0d bc
       0.015411779 0.004228236 0.08263839 -0.008662364
000050 52 0b 22 3d d7 a7 e3 ba 2c f7 13 3d cf c0 fd 3c
       0.039561577 -0.0017368746 0.036124393 0.030975727
000060 d7 c9 38 3d b1 41 51 3c 74 fb e8 bd eb 08 8f 3c
       0.045114364 0.01277201 -0.11376086 0.017460307
000070 9d 7c e7 bc 68 f4 fc 3c 1d b3 09 3d fd 04 7e 3a
       -0.028257662 0.03087826 0.03361808 0.00096900744
000080 36 07 a0 3d a8 c5 95 bc 0c 89 8f 3d c5 ed 59 3d
       0.078138754 -0.018282726 0.070085615 0.05320527
000090 62 7c 6c bc d8 18 37 3b ea e5 a4 3a dd 7c af bb
       -0.014433952 0.0027938392 0.0012580727 -0.005355461
0000a0 2d 76 4a bd d9 5b 17 bc a8 a0 54 3d a4 f5 12 bc
       -0.049429107 -0.009238207 0.051911026 -0.008969698
0000b0 cf 3e 05 bc 31 81 89 3c d0 88 38 3d d2 78 3a bd
       -0.0081326505 0.016785236 0.04505235 -0.04552538
0000c0 66 e1 1b 3d 7b ff 49 3d 23 65 90 3d 35 a0 88 3d
       0.038056754 0.04931591 0.0705054 0.06671182
0000d0 fa a0 93 bc a8 93 e4 bb e5 30 dd bc 4a 71 72 3d
       -0.018021096 -0.00697561 -0.027000854 0.059190072
0000e0 36 66 9a bd 1d 4b 00 3c 45 2d 8c 3d bf 46 f4 bd
       -0.075390264 0.007830408 0.06844572 -0.11927556
0000f0 2f 23 37 3d 7f 3f 7e bc b7 0c b4 3d d1 26 ed 3c
       0.044711288 -0.015518068 0.08791488 0.028949173
000100 e0 14 62 3d ba f0 ca bb a1 73 a4 bd 39 40 e5 3c
       0.05519569 -0.0061932476 -0.08029867 0.027984725
000110 24 20 e9 bb 3e 58 84 3d 10 1b 80 3c de b5 68 bd
       -0.007114427 0.06462143 0.015637904 -0.056814067
000120 b1 71 75 bc 1b 56 c2 3c c0 95 16 bd 34 0d 5b 3d
       -0.014980719 0.023722699 -0.036763906 0.05347939
000130 7d 7c cc bb 4e eb dc bd ee 7c cc bb aa f0 60 bd
       -0.006240426 -0.10787068 -0.0062404787 -0.054917015
000140 35 40 ee bc cf 4c ff 3c b2 ed 82 3c 9b 30 e5 3d
       -0.02908335 0.031164555 0.015982483 0.111909114
000150 bc f9 35 3c 98 60 31 bc 9c 10 7c bc af b2 a1 3d
       0.011106905 -0.010826252 -0.015384819 0.07895409
000160 97 5c 26 bd 6a 82 76 bd 91 e3 f0 3a 53 88 27 be
       -0.040615644 -0.060182966 0.0018378367 -0.16360597
000170 58 51 21 bd 60 30 4d 3d 24 39 a8 bd b9 17 25 bd
       -0.039384216 0.050094962 -0.08214024 -0.040305827
000180 2d 4c 1f 3d 28 63 04 3e 59 4c 37 bd b8 40 1f bc
       0.038891006 0.1292845 -0.044750545 -0.00972002
000190 8c 3d 0d 3e 46 36 7e 3d b3 fe 4d 3d 79 1a 3e bd
       0.1379301 0.062063478 0.05029173 -0.046411965
0001a0 44 b3 f4 3c 3d 35 4d 3c 71 41 0d bd 0b 8d 96 bc
       0.029870637 0.0125249 -0.034486238 -0.018377801
0001b0 91 b9 49 bd 94 a2 c6 bc 5d 52 0b 3c a3 b8 12 bc
       -0.049249236 -0.024247445 0.008503524 -0.008955154
0001c0 28 40 02 3d b6 8c 8d 3c 9e 78 8e 3d 34 4e eb bd
       0.031799465 0.01727901 0.069566 -0.114895254
0001d0 72 6d 97 bd 7f 19 09 bd 6e 4f cf bd c1 a4 9b bd
       -0.07393922 -0.03347158 -0.10122572 -0.07599784
0001e0 b0 ee 79 bd 66 f1 0f bd bd 65 31 3d 29 06 4d be
       -0.061018646 -0.035142325 0.043309916 -0.20021881
0001f0 c7 83 37 3d 34 d7 c8 3c 74 c6 3b bd 37 c6 d1 bd
       0.044803407 0.02451668 -0.045843557 -0.102428846
000200 b3 68 a7 3c 55 26 a4 3d 3a 1d 78 3d c5 e6 55 bd
       0.020435667 0.08015124 0.060574748 -0.052222032
000210 2e 17 08 3c c5 a5 9e 3d 65 d5 80 ba 32 8f 68 bd
       0.008306308 0.07746462 -0.0009829222 -0.056777187
000220 83 09 b0 bc 43 14 84 bd 1d 34 e0 bd 96 e3 1d bc
       -0.02148891 -0.06449177 -0.1094744 -0.00963678
000230 36 d7 bb bc b7 34 95 3d c6 5d 02 bd 22 92 84 3c
       -0.022929769 0.07285445 -0.03182771 0.016182963
000240 7d e1 6b 3c b1 84 2e 3d 40 8e bc bd 17 9c aa bd
       0.014397022 0.042607013 -0.092068195 -0.08330553
000250 99 7d ab 3c 34 aa e6 3c c4 c2 79 bd 91 fa 34 3d
       0.020933913 0.028157331 -0.06097676 0.04418427
000260 14 04 02 be 1f 88 a7 3c e0 16 c9 bc 82 09 4c 3b
       -0.12696868 0.02045065 -0.02454704 0.0031133597
000270 49 3d cb bd 02 62 c8 b9 8a 06 26 3d 85 65 8e bd
       -0.099237986 -0.00038219994 0.04053358 -0.06952957
000280 05 0f 29 3c d2 c8 e9 bd 59 7f e0 3b 6b 27 99 3d
       0.010318522 -0.114152566 0.0068511185 0.074782215
000290 5b d6 56 3d 8c b5 c5 bb d2 fd 2a 3e ac 48 d8 3c
       0.05245052 -0.006033605 0.16698387 0.02640184
0002a0 27 0f 26 bd f1 57 56 be 9c 66 6f 3c 1d 53 c5 3d
       -0.040541794 -0.20931984 0.014611866 0.09634993
0002b0 f0 d9 43 bd a3 37 8c bc 81 e2 8c bd 69 0a a1 bc
       -0.047815263 -0.017116373 -0.0687914 -0.019658284
0002c0 d4 c5 14 3c fc 3e 2d 3c c8 bb 88 bb 1a 4b 14 3e
       0.009080369 0.010574099 -0.004172776 0.14481774
0002d0 1b 3e b4 bd 90 c8 06 3d 70 20 1f bd aa b0 90 3c
       -0.08800908 0.032906115 -0.038849294 0.017662365
0002e0 f4 b2 7f bc 45 ad f4 3d cf ac 94 3d 1c 75 c0 bc
       -0.015606631 0.11947111 0.07259523 -0.023493342
0002f0 2f ab ef bc 19 f9 1f 3d c2 d2 49 3d 43 b9 17 bd
       -0.029256431 0.039055917 0.04927326 -0.037041914
000300 81 7f 37 3c e2 00 cd 3b ed 9a f5 bc 3a 27 c3 bd
       0.011199833 0.0062562088 -0.029981101 -0.09528966
000310 0a a2 65 3d 64 c7 d1 bd f2 42 9a bc 28 37 d3 bc
       0.056062736 -0.10243109 -0.01883075 -0.025783136
000320 c1 d2 04 be 1e 11 14 3d 3c a0 0a be 4b 16 00 be
       -0.12971021 0.036149137 -0.13537687 -0.12508504
000330 c2 f4 b4 bd e2 34 07 3d 90 c1 77 bd ce fe 2e be
       -0.08835746 0.033009417 -0.06048733 -0.17089388
000340 3e 0e 1e 3d 3d 3f 87 3c 87 a8 ae 3c 2e 21 0b 3d
       0.0385878 0.016509647 0.021320594 0.03396719
000350 17 a6 05 3e a3 81 59 3c 3a 62 49 3c 29 ae 6d 3d
       0.1305164 0.013275537 0.012291485 0.05802742
000360 09 16 12 3d a7 35 e0 3d 09 7c a2 bc 2d ec 54 be
       0.035665546 0.10947733 -0.019834535 -0.20793219
000370 0c 6f a6 bc 40 9d a0 3d 7f 64 ec bc a7 08 bb bc
       -0.020316623 0.07842493 -0.028856514 -0.022831274
000380 10 d2 d1 bd 36 b6 b1 bd 3d eb 9b 3d b6 7b 20 bd
       -0.10245144 -0.08677332 0.076132275 -0.03918048
000390 c1 95 01 bd b9 e5 0a bc 2b 5c 8d 3d 7b 5f 02 bc
       -0.031636957 -0.008477622 0.06902345 -0.007957335
0003a0 e4 bc 14 3d 99 b0 32 bd 67 23 57 bc 46 46 7a 3d
       0.036312953 -0.043625448 -0.013130999 0.061102174
0003b0 82 be 13 bd 43 92 34 bd 98 88 20 3b 12 a4 71 3d
       -0.036070354 -0.0440848 0.0024495479 0.05899436
0003c0 8f e6 43 bc 16 e2 f0 3c fc 25 c7 bd 21 80 42 3d
       -0.011956825 0.029404681 -0.09724042 0.047485474
0003d0 6c 8d dd 3d 79 fc 4c bd 68 51 17 bd 98 c2 0d be
       0.1081799 -0.050045464 -0.03694287 -0.13843763
0003e0 39 77 bd 3c 54 d4 58 bd 49 cd 2c bd 3e 9b 5b 3d
       0.023128139 -0.052936867 -0.042187963 0.053614847
0003f0 d5 22 d5 bc da ec 7e 38 f7 c3 0f 3e 81 45 6c 3c
       -0.026017586 6.0778904e-05 0.14039598 0.014420868

sequential/dense_1/MatMul f4 [5, 32]
000000 a6 05 29 be 04 08 80 be 3e 59 9a 3e 7e 64 73 bd
       -0.16506061 -0.25006115 0.3014621 -0.05942201
000010 25 f8 52 be d0 ac 1e bd 65 9f 6e be 3d d7 b7 3d
       -0.20602472 -0.038739026 -0.23302992 0.089766
000020 09 41 6d be 8a 7e 9b be 37 14 84 be fe 8c c9 3e
       -0.2316934 -0.3036998 -0.25796673 0.3936538
000030 d9 b7 b9 3e e7 3a b1 3c 2a 4c 18 be d7 45 3e be
       0.36273077 0.021634532 -0.14872804 -0.1858133
000040 1b ac 1e be a7 23 54 be d7 b6 89 bd 93 19 05 3e
       -0.1549534 -0.20716725 -0.06724327 0.12998037
000050 bc d7 00 3e 30 18 84 be e1 c7 f0 bd 66 51 43 be
       0.12582296 -0.25799704 -0.11756874 -0.1907402
000060 b2 9e c4 bd dd 4c 06 be 38 a6 0d be 17 77 9a be
       -0.09600581 -0.13115259 -0.13832939 -0.30168983
000070 d7 fe 37 88 b7 c0 99 be f8 58 8a be ed 39 8c bd
       -5.536912e-34 -0.30029842 -0.27021003 -0.06846986
000080 a2 c0 a7 3e e6 b9 a0 3e 2f 09 b1 be d4 35 8c bc
       0.32764155 0.3139183 -0.3457732 -0.017115511
000090 4c 2b b8 3e 01 57 6c be 42 52 79 be f8 e0 99 3e
       0.35970533 -0.23080064 -0.24347785 0.3005445
0000a0 63 9a 86 be fc f1 3a 3e 3e 2f a7 bd b1 c1 84 bd
       -0.26289663 0.18256372 -0.081633076 -0.06482256
0000b0 e3 49 54 3e c8 ac ed be 8a af c1 3e f1 e7 a3 3d
       0.2073131 -0.46420884 0.37829238 0.08003224
0000c0 a8 a3 b3 3e b1 97 8d be 60 eb a1 be fa 1a 99 3c
       0.35085797 -0.27654794 -0.3162489 0.018689621
0000d0 f4 32 4a be 1f 87 ad be d9 91 54 3e 54 b8 b6 3e
       -0.19746 -0.33892152 0.20758761 0.35687506
0000e0 50 5b f0 bd f9 2d a8 3e d1 78 82 bd d9 4e 28 be
       -0.117361665 0.32847574 -0.063707 -0.16436328
0000f0 10 6c a6 8e b0 b8 72 3e 55 f0 28 3e 7e 5d 6d 3e
       -4.102622e-30 0.23703265 0.1649793 0.23180196
000100 c7 d0 8d be f2 30 9d 3e 52 71 94 3e 25 30 1f be
       -0.27698347 0.30701405 0.28992707 -0.1554571
000110 bd 79 8e be 38 22 22 be 1e 73 d5 3e db 21 9f 3e
       -0.27827254 -0.15833366 0.4168939 0.31080517
000120 00 ed 91 be 88 6a b4 be df 99 b6 3e c4 9a 96 be
       -0.2850113 -0.35237527 0.3566427 -0.29414952
000130 31 a8 c9 be df 1e 9c be 73 b1 83 be 18 fe 57 3e
       -0.39386132 -0.30492303 -0.2572132 0.21093023
000140 e1 2e 90 be e7 dd b9 3e c2 da ad be 6e 8f b8 be
       -0.28160766 0.3630211 -0.3395596 -0.36046928
000150 c6 d6 c2 3e 18 f1 b0 3e c5 66 65 be bd 0b c7 3e
       0.38054484 0.3455894 -0.22402485 0.38876143
000160 63 5c 18 be b7 bf 8b be 1c 76 44 be 2d 3f a9 3e
       -0.14878993 -0.27294704 -0.1918568 0.33056012
000170 80 07 62 85 3b f0 7f 3e 95 f4 c8 be 17 8b c5 3e
       -1.06278465e-35 0.24993984 -0.392491 0.3858268
000180 7e c0 c6 3e 92 59 c0 be fa 3b c9 be 30 0b 71 be
       0.38818735 -0.37568337 -0.3930357 -0.23539424
000190 d2 c6 ac 3e d1 26 f4 3e 8d 04 83 bd 5d 6c 9c be
       0.33745438 0.47685865 -0.06397352 -0.30551425
0001a0 32 88 b2 3e c7 1b a2 3e e0 9c ce 3e b4 ae a6 be
       0.34869534 0.31661817 0.4035406 -0.32555163
0001b0 c1 7b cc be e0 ef ee 3d ef 32 7c be 2b 51 cc bd
       -0.39938167 0.11666846 -0.24628805 -0.09976419
0001c0 3f 79 5d be b5 3b fb bd e2 e8 b0 3e dd 5d a4 3e
       -0.21628283 -0.122672476 0.34552675 0.32102862
0001d0 64 56 14 be 19 67 eb 3c b4 89 96 be bf a7 86 be
       -0.1448608 0.028735684 -0.29401934 -0.26299855
0001e0 5d 5c 33 be a3 bc 86 be c0 a1 71 bd 14 4f ad 3e
       -0.17515703 -0.26315793 -0.058992147 0.33849394
0001f0 3f 78 5e 87 8f 1c 58 3e c4 73 ab 3e 12 54 3a be
       -1.6736761e-34 0.21104644 0.3348676 -0.18196133
000200 3e ae 85 be 46 00 b6 3d 17 80 19 3e 6e 6f d3 3e
       -0.261095 0.08886771 0.14990269 0.41295952
000210 72 f7 95 be 72 c3 4c be 66 5f 7e 3e 9f b9 ba be
       -0.29290348 -0.19996431 0.24841079 -0.36469743
000220 ec fe 85 3e 45 14 85 3e 60 2d 05 3d da 1c 98 3e
       0.26171052 0.25992027 0.032513976 0.29709512
000230 16 08 8f 3d 91 dc ba 3d fa 0a 98 3e c8 9f f0 bd
       0.06983964 0.09124101 0.29695874 -0.11749226
000240 6f 87 93 3e 54 0d bd 3e 66 cb 92 3e 1f 73 a1 be
       0.28814265 0.3692423 0.28670806 -0.31533143
000250 02 81 a5 be a5 bc 92 3e 8e 44 b8 3e e3 19 63 be
       -0.32324988 0.2865955 0.35989803 -0.22177844
000260 c0 59 e4 3e ed 24 75 3e 5c 9d 00 3f c4 58 73 3e
       0.44599724 0.23939867 0.5024011 0.2376433
000270 94 70 51 08 6a 69 e3 be 02 92 9b 3e 6b 3d ad be
       6.3025985e-34 -0.44416362 0.30384833 -0.3383592
