core/src/main/assets/model.tflite (tflite, 300552 bytes, 4 tensors)

sequential/dense/BiasAdd/ReadVariableOp f4 [16]
00000000: 65e3 053e 18e9 8dbd 7696 ca3b 9f72 dbbc
00000010: ab05 f53c 152b 7fbd 8a81 14bd 306f 76bc
00000020: a59c bdbc 44ba 87bd 8152 13bd 8bf2 343d
00000030: 1472 c8bd dbad 7b3e 36d9 90bd 8038 4d3d
0.13075025 -0.06929225 0.006182487 -0.026788054 0.02990993 -0.062296946 -0.03625635 -0.015041158
-0.023145983 -0.06627324 -0.035967354 0.04417662 -0.09787384 0.2457804 -0.0707268 0.05010271

sequential/dense_1/BiasAdd/ReadVariableOp f4 [5]
00000000: 22e2 923e 4ece 27bf 6818 f23e 5732 4bbc
00000010: a5fb 96bc
0.2868815 -0.6554917 0.47284245 -0.012402139 -0.01843054

sequential/dense/MatMul f4 [16, 4671]
00000000: 9c0d 4abd 2db8 4ebd cd38 bcbc 8f38 24bd
00000010: 25d3 403d 9322 69bc 411d 34bd a4ef 00be
00000020: 78da 89bd 71bd b63b 6695 debd d4c9 083b
00000030: 21e7 bebd 6ae0 20bd affb 023c 247f 0ebd
00000040: 88a8 28bb 6344 4bbd 072f c43b f18b 483d
00000050: f9d1 bf3d 77e9 833c 8c30 093c 43ae acbd
00000060: 10f0 bfbd 7bdd 0a3e d11b bf3d a7cb a93c
00000070: 2d1a e3bd c56c ce3b e429 223d 2a99 a4bb
00000080: b51a 9cbc 49c9 033e 365e 763d 2817 86bd
00000090: 4ebe 503d 8746 d7bd 5d8c a0bd c2df 223d
000000a0: 66c6 863c 1024 a3bc 53ea 98bd 8fc2 9fbd
000000b0: c597 8dbd 0fab d9bd 4efd 1dbe 3d48 8bbc
000000c0: b961 18bd 4b57 b2bd 979a 85bc 6b73 c53b
000000d0: b147 6f3d fa88 58bd c73d 61bc a617 423e
000000e0: 3386 713c 7ce8 b83a 7ef3 ae3d 9adf 85bd
000000f0: 7b81 76bd 4b72 803e b8b6 79bd defd 3fbd
00000100: 8bf0 9f3d 018e 0f3c 0af8 07bc 813b fcbb
00000110: 9692 1c3c 4582 9ebd 00e7 123c f647 a03d
00000120: 9857 4bbc aed3 acbc 6aa9 1ebd 869b 10bd
00000130: 6ccb a5bc 022f debd d3e8 0bbd ad4e 323e
00000140: b52e 593d 7d4f b23d bcb1 40bd d33a 303b
00000150: c928 d7bd 299c d7bd f3bb 463d 2a01 40bd
00000160: fcab 3abb 7b07 e1bd f4aa b3bc 287e 63be
00000170: b630 e13c 884a 3b3d 6d3f e33c 9d98 9b3d
00000180: e7fb 463d 378b f7bc 428e a2bd 6938 523c
00000190: d524 4abc b1a7 603d 05ca 0f3e dc78 59bd
000001a0: cba0 303d 4747 123d 63c9 0b3d 196d 183e
000001b0: 3d04 e13d 6c1c c93c be8b babd d839 2bbd
000001c0: 5084 003d b63d eabd 420e 4d3e 9d35 8bbd
000001d0: 4aa6 30bd db5f 043e 468a 61be c61d 81bb
000001e0: b103 97bd 42d6 cabd f1b3 c53d bb29 a93e
000001f0: 8c60 b93d 680f e53d b08c a8bd 9e6f f0bc
00000200: 0b75 323c 9050 983e b601 c33c c279 14be
00000210: d37d b23c 20bd 37bd 1ca2 00be b827 1bbd
00000220: cb76 013d 5849 803e b8a1 983c 643f a5bd
00000230: 1a00 fdbb 3b69 fd3d 863f 82bd ceaa f93d
00000240: d54d 263e fff8 37bd 8cb7 acbb ec4d 1c3e
00000250: 10be 39bd 371e 2fbe 47bd 91bd 4f4c eebc
00000260: 1806 883e 9728 a13c 5123 2cbc f8af 2d3e
00000270: ddc0 3f3c 1bff abbd 8031 b03c 51da db3d
00000280: 4735 a7bd 32c6 50bb a5b4 76bd df9a ef3d
00000290: b221 eebc 3087 71bc b75f 643d 9e00 e0bd
000002a0: bb44 9bbd 26a2 643d d1aa edbd 3c53 aab8
000002b0: 193d a6b9 66d5 a5bc 65ad b0bc e133 58bd
000002c0: 313b b0bd ef19 693d 30c6 11bd c607 673d
000002d0: 4ca5 09bd 4861 973d ca35 b4bd 6367 3fbd
000002e0: eba1 9f3c 2aff 89ba 6d35 25bd 55a2 863c
000002f0: eb1a 06be 8119 68bd f06f 14bd f21a 11bd
00000300: 6d2f 11be de3c 6e3a 475e 443d 84a0 443e
00000310: 9ea2 413e a25b b9bb b097 c63c 8e9c 81bd
00000320: 0ef1 8bbc 0c0e 83bd a4a0 3ebd 1a0e a0bc
00000330: ec14 d73d 86bf dc3d 8b11 bbbd 18d7 fc3d
00000340: 09a9 633d 68cf d0bb 0636 0c3c 2806 3cbd
00000350: bef4 32be be8e fa3c a39a 3c3d bade 70bd
00000360: 868e 2b3e 7a5d b93d ba7b ee3d 65d1 4b3e
00000370: d969 72bd 8a41 81bd 5a6f ef3c 36b8 aabd
00000380: 415f 883e 5f4b a1bd 73bc 043d fe66 9c3c
00000390: bd1a 073d b501 bebd c954 c83d 86fd 0dbd
000003a0: 9301 133c 3738 383d 874c bbbd 9374 8f3d
000003b0: 9a06 ccbc 5af3 c2bd 2813 133e f25a d7bd
000003c0: 0b1a c1bc 3d23 9c3b 669a 96bc 07ad 843d
000003d0: b9fa 7d3d ffac 97bc 25fb 28bd 6c8d 60be
000003e0: 5175 323d 6082 02bd 2410 08bd ed27 8abd
000003f0: ce55 8fbd 3529 9c3d 0891 263d 7cf1 063e
-0.049329385 -0.050468612 -0.022976303 -0.040093 0.047076363 -0.014229435 -0.04397321 -0.12591416
-0.06731123 0.0055767824 -0.10868339 0.0020872252 -0.09321428 -0.039276518 0.007994576 -0.03478922
-0.0025735218 -0.049625766 0.0059870514 0.048961584 0.09366221 0.016102536 0.008373391 -0.08431675
-0.0937196 0.1356105 0.093314774 0.020726992 -0.11088977 0.0062995874 0.03959073 -0.0050231414
-0.019055704 0.12869753 0.06014844 -0.065473855 0.05096274 -0.10511499 -0.07839272 0.039764173
0.016452026 -0.019914657 -0.07466569 -0.07800781 -0.06913713 -0.1062833 -0.1542866 -0.01700222
-0.03720257 -0.08708056 -0.016309066 0.006025722 0.05841798 -0.052865006 -0.013747639 0.18954334
0.014741468 0.0014107372 0.08542536 -0.06536789 -0.060182076 0.250872 -0.06096527 -0.046872966
0.07809552 0.008761884 -0.008298883 -0.007697523 0.009556433 -0.07739691 0.0089662075 0.078262255
-0.012411021 -0.02109703 -0.038735785 -0.03530457 -0.0202386 -0.1084881 -0.034157585 0.17412825
0.05302306 0.087065674 -0.0470445 0.002689053 -0.10505826 -0.10527832 0.048519086 -0.04687611
-0.0028483858 -0.10987755 -0.021932103 -0.22216094 0.027489047 0.045725375 0.027740205 0.07597468
0.048580077 -0.03021775 -0.0793729 0.012830832 -0.012337883 0.054847423 0.14041908 -0.053093776
0.043122094 0.035712507 0.034127604 0.14885367 0.109871365 0.024549685 -0.09108685 -0.04180321
0.031376183 -0.11437552 0.2002497 -0.06797335 -0.043127336 0.12927191 -0.22025403 -0.003940317
-0.07373751 -0.09904148 0.09653462 0.3303965 0.09051618 0.11184579 -0.08229959 -0.029350098
0.010892163 0.29748964 0.023804527 -0.14499572 0.021788513 -0.044858098 -0.1256184 -0.037879676
0.03160743 0.25055957 0.018631801 -0.080687314 -0.0077209594 0.12373587 -0.063597724 0.121907815
0.16240628 -0.044915196 -0.005270904 0.152641 -0.045347273 -0.1710137 -0.0711618 -0.029089121
0.2656715 0.019672675 -0.010506467 0.16961658 0.011703697 -0.08398267 0.021507978 0.10735
-0.08164459 -0.0031856415 -0.06023087 0.11699461 -0.029068802 -0.014741704 0.055755343 -0.10937618
-0.07581469 0.0558187 -0.11604846 -8.121735e-05 -0.0003170751 -0.020243358 -0.021567056 -0.05278385
-0.0860504 0.056909498 -0.035589397 0.056403898 -0.033604905 0.07391602 -0.08799322 -0.046729457
0.019486388 -0.0010528315 -0.040334154 0.016434828 -0.13096206 -0.056664947 -0.036239564 -0.035426088
-0.14178248 0.00090880494 0.047941472 0.19201857 0.1890969 -0.0056566754 0.024242252 -0.063286886
-0.017082717 -0.063991636 -0.046539918 -0.019537974 0.105020374 0.10778718 -0.091342054 0.123457134
0.055581126 -0.006372381 0.008557802 -0.04590431 -0.17476174 0.030585643 0.04604591 -0.05880616
0.16753587 0.09051032 0.11644693 0.19904096 -0.059182975 -0.06311329 0.029227901 -0.08335917
0.26635173 -0.07875704 0.03240628 0.01909208 0.032984484 -0.09277669 0.097817965 -0.034665607
0.008972543 0.044975486 -0.09145456 0.07004657 -0.024905492 -0.09519072 0.14362776 -0.10515393
-0.023571989 0.004764943 -0.01838417 0.06478315 0.062006686 -0.018515108 -0.041255135 -0.21928948
0.043568913 -0.031862617 -0.033218518 -0.067458965 -0.06998788 0.07625047 0.040665656 0.13178056

sequential/dense_1/MatMul f4 [5, 16]
00000000: 768d 703e a8c5 85be 55d7 aabe ab15 b0be
00000010: 43c2 44be cb2f 66be cb86 a0be f967 573d
00000020: 691f afbe 0e52 9fbe bb9c 44bd 71d2 a0be
00000030: 6a36 89be e0fe b93e 6dee 84be afb5 5ebe
00000040: 5e97 e2be 9f37 d53e d785 253e 5650 303e
00000050: 07b4 6abe c496 093f d839 9bbe 71e0 b83e
00000060: 39f1 d03d 8efc 5c3e 0d34 3dbe acf5 05be
00000070: 2dc6 fbbd 71f2 793e d479 8f3e 4443 c83e
00000080: 8477 d8be 723d 3bbe da93 12bf b167 07bf
00000090: 7085 82be d70b 89be 4248 093f 6ad5 113f
000000a0: 8098 09bf 1b6d a03e c319 06be d6dc f13e
000000b0: 2698 133f 6c40 f0be e9b5 ac3e 7598 84be
000000c0: fae7 c73e 7d31 f63e 70d5 933e bd7f a33e
000000d0: 246c 043d a184 e83e b817 d53e 146b cabe
000000e0: 3e49 903e cc50 e1be 2816 3c3f b5bc f3be
000000f0: d3fe e63e aa99 05bf ff77 aabe 3cdb eebe
00000100: 2fab e23e a079 cebe 44b1 b13e 5cbe 833e
00000110: 1914 273f 5d1b acbe 4b21 ad3e 8732 ddbe
00000120: dda0 ae3e 992a f2be 6ca8 2bbe cd6f 013f
00000130: d9d9 40be 6e35 923e 3090 b6be cf5c c73e
0.23491463 -0.26127362 -0.3336741 -0.3439153 -0.1921473 -0.22479169 -0.3135284 0.05258939
-0.34203652 -0.3111729 -0.048001032 -0.31410554 -0.26799327 0.36327267 -0.25963154 -0.21748994
-0.4425611 0.41643998 0.16164337 0.17218146 -0.22920237 0.53745675 -0.3031757 0.36108735
0.102022596 0.21580717 -0.18476887 -0.13081998 -0.122936584 0.2440889 0.28022635 0.3911382
-0.42278683 -0.18285158 -0.57256854 -0.52892596 -0.2549243 -0.26766846 0.5362588 0.5696627
-0.5374832 0.3133324 -0.13095765 0.47238797 0.57654035 -0.4692415 0.33732536 -0.25897565
0.39044172 0.48084632 0.28873777 0.31933394 0.032329693 0.45413688 0.41619658 -0.3953482
0.2818088 -0.44006956 0.7347131 -0.4760491 0.4511629 -0.521876 -0.33294675 -0.46651638
0.44271228 -0.40327168 0.34705555 0.2573117 0.6526504 -0.33614627 0.33814463 -0.43202612
0.34107104 -0.47298124 -0.16763467 0.5056122 -0.18833102 0.2855639 -0.3565688 0.38937995
